GPU Mem: [ 872    3 1042    3]
GPU Prob: [0.08 0.43 0.07 0.43]
Random select GPU, select GPU 2 with mem: 1042
Load: 0.3037s, Before split: 0.3625s, Split: 0.857s, After split: 3.624e-05s
GNN(
  (node_encoder): TransactionNodeEncoder(
    (embedding_list): ModuleList(
      (0): Embedding(1483, 16)
      (1): Embedding(32, 16)
      (2): Embedding(13, 16)
      (3): Embedding(24, 16)
      (4): Embedding(5, 16)
    )
  )
  (node_encoder_bn): BatchNorm1dNode(
    (bn): BatchNorm1d(80, eps=1e-05, momentum=0.1, affine=True, track_running_stats=True)
  )
  (edge_encoder): TransactionEdgeEncoder(
    (embedding_list): ModuleList()
    (linear_amount): Linear(in_features=1, out_features=16, bias=True)
    (linear_time): Linear(in_features=1, out_features=16, bias=True)
  )
  (edge_encoder_bn): BatchNorm1dEdge(
    (bn): BatchNorm1d(32, eps=1e-05, momentum=0.1, affine=True, track_running_stats=True)
  )
  (preprocess): Preprocess(
    node_feature: dim_out=80
    Total: dim_out=80
  )
  (pre_mp): GeneralMultiLayer(
    (Layer_0): GeneralLayer(
      (layer): Linear(
        (model): Linear(in_features=80, out_features=64, bias=False)
      )
      (post_layer): Sequential(
        (0): BatchNorm1d(64, eps=1e-05, momentum=0.1, affine=True, track_running_stats=True)
        (1): PReLU(num_parameters=1)
      )
    )
  )
  (mp): GNNStackStage(
    (layer0): GraphRecurrentLayerWrapper(
      (layer): ResidualEdgeConv(
        (model): ResidualEdgeConvLayer(64, 64)
      )
      (post_layer): Sequential(
        (0): BatchNorm1d(64, eps=1e-05, momentum=0.1, affine=True, track_running_stats=True)
        (1): PReLU(num_parameters=1)
      )
      (embedding_updater): MLPUpdater(
        (mlp): MLP(
          (model): Sequential(
            (0): GeneralMultiLayer(
              (Layer_0): GeneralLayer(
                (layer): Linear(
                  (model): Linear(in_features=128, out_features=128, bias=False)
                )
                (post_layer): Sequential(
                  (0): BatchNorm1d(128, eps=1e-05, momentum=0.1, affine=True, track_running_stats=True)
                  (1): PReLU(num_parameters=1)
                )
              )
            )
            (1): Linear(
              (model): Linear(in_features=128, out_features=64, bias=True)
            )
          )
        )
      )
    )
    (layer1): GraphRecurrentLayerWrapper(
      (layer): ResidualEdgeConv(
        (model): ResidualEdgeConvLayer(64, 64)
      )
      (post_layer): Sequential(
        (0): BatchNorm1d(64, eps=1e-05, momentum=0.1, affine=True, track_running_stats=True)
        (1): PReLU(num_parameters=1)
      )
      (embedding_updater): MLPUpdater(
        (mlp): MLP(
          (model): Sequential(
            (0): GeneralMultiLayer(
              (Layer_0): GeneralLayer(
                (layer): Linear(
                  (model): Linear(in_features=128, out_features=128, bias=False)
                )
                (post_layer): Sequential(
                  (0): BatchNorm1d(128, eps=1e-05, momentum=0.1, affine=True, track_running_stats=True)
                  (1): PReLU(num_parameters=1)
                )
              )
            )
            (1): Linear(
              (model): Linear(in_features=128, out_features=64, bias=True)
            )
          )
        )
      )
    )
  )
  (post_mp): GNNEdgeHead(
    (layer_post_mp): MLP(
      (model): Sequential(
        (0): GeneralMultiLayer(
          (Layer_0): GeneralLayer(
            (layer): Linear(
              (model): Linear(in_features=128, out_features=128, bias=False)
            )
            (post_layer): Sequential(
              (0): BatchNorm1d(128, eps=1e-05, momentum=0.1, affine=True, track_running_stats=True)
              (1): PReLU(num_parameters=1)
            )
          )
        )
        (1): Linear(
          (model): Linear(in_features=128, out_features=1, bias=True)
        )
      )
    )
  )
)
bn:
  eps: 1e-05
  mom: 0.1
cfg_dest: config.yaml
dataset:
  AS_node_feature: one
  augment_feature: []
  augment_feature_dims: []
  augment_feature_repr: position
  augment_label: 
  augment_label_dims: 0
  cache_load: False
  cache_save: False
  dir: /home/fzz/work/experiment/roland-fzz/roland_public_data
  edge_dim: 32
  edge_encoder: True
…
